Using TensorFlow backend.
_________________________________________________________________
Layer (type)                 Output Shape              Param #   
=================================================================
masking_1 (Masking)          (None, 100, 1)            0         
_________________________________________________________________
embedding_1 (Embedding)      (None, 100, 1, 5)         250       
_________________________________________________________________
reshape_1 (Reshape)          (None, 100, 5)            0         
_________________________________________________________________
gru_1 (GRU)                  (None, 100, 256)          201216    
_________________________________________________________________
gru_2 (GRU)                  (None, 128)               147840    
_________________________________________________________________
dense_1 (Dense)              (None, 50)                6450      
=================================================================
Total params: 355,756
Trainable params: 355,756
Non-trainable params: 0
_________________________________________________________________
None
Train on 88945 samples, validate on 29648 samples
Epoch 1/10
Epoch 00000: loss improved from inf to 2.43368, saving model to weights004_GRU-256_GRU-128/000_2.4337_0.2447_2.1691_0.3174.hdf5
…
