…
  39:         'GRU256_' + \
  40:         'GRU64_' + \
  41:         'GRU512_' + \
  42:         'BATCH32_' + \
  43:         'EMBEDDING' + str(space['output_dim']) )
  44: 
  45:     loss,acc = model.evaluate(x_val,y_val, verbose=0)
  46:     print("Test loss: "+str(loss)+"\tTest acc: " +str(acc))
  47:     return {'status': STATUS_OK, 'model':model, 'loss':loss, 'acc':acc }
  48: 
_________________________________________________________________
Layer (type)                 Output Shape              Param #   
=================================================================
masking_1 (Masking)          (None, 100, 1)            0         
_________________________________________________________________
embedding_1 (Embedding)      (None, 100, 1, 40)        2000      
_________________________________________________________________
reshape_1 (Reshape)          (None, 100, 40)           0         
_________________________________________________________________
gru_1 (GRU)                  (None, 100, 256)          228096    
_________________________________________________________________
gru_2 (GRU)                  (None, 100, 64)           61632     
_________________________________________________________________
gru_3 (GRU)                  (None, 512)               886272    
_________________________________________________________________
dense_1 (Dense)              (None, 50)                25650     
=================================================================
Total params: 1,203,650
Trainable params: 1,203,650
Non-trainable params: 0
_________________________________________________________________
None
Train on 88944 samples, validate on 29649 samples
Epoch 1/20
2018-09-03 12:18:27.985674: I tensorflow/stream_executor/cuda/cuda_gpu_executor.cc:892] successful NUMA node read from SysFS had negative value (-1), but there must be at least one NUMA node, so returning NUMA node zero
…
Epoch 7/20
Epoch 00007: loss improved from 1.39918 to 1.34549, saving model to weights/GRU256_GRU64_GRU512_BATCH32_EMBEDDING40__007_1.3455_0.5641_1.8072_0.4526.hdf5
Epoch 8/20
Epoch 00008: loss improved from 1.34549 to 1.34344, saving model to weights/GRU256_GRU64_GRU512_BATCH32_EMBEDDING40__008_1.3434_0.5660_1.8098_0.4510.hdf5
Test loss: 1.80981673312	Test acc: 0.451010152127
_________________________________________________________________
Layer (type)                 Output Shape              Param #   
=================================================================
masking_2 (Masking)          (None, 100, 1)            0         
_________________________________________________________________
embedding_2 (Embedding)      (None, 100, 1, 100)       5000      
_________________________________________________________________
reshape_2 (Reshape)          (None, 100, 100)          0         
_________________________________________________________________
gru_4 (GRU)                  (None, 100, 256)          274176    
_________________________________________________________________
gru_5 (GRU)                  (None, 100, 64)           61632     
_________________________________________________________________
gru_6 (GRU)                  (None, 512)               886272    
_________________________________________________________________
dense_2 (Dense)              (None, 50)                25650     
=================================================================
Total params: 1,252,730
Trainable params: 1,252,730
Non-trainable params: 0
_________________________________________________________________
None
Train on 88944 samples, validate on 29649 samples
Epoch 1/20
Epoch 00001: loss improved from inf to 2.16419, saving model to weights/GRU256_GRU64_GRU512_BATCH32_EMBEDDING100__001_2.1642_0.3232_1.9441_0.3858.hdf5
…
Epoch 6/20
Epoch 00006: loss improved from 1.45440 to 1.35593, saving model to weights/GRU256_GRU64_GRU512_BATCH32_EMBEDDING100__006_1.3559_0.5606_1.7472_0.4574.hdf5
Epoch 7/20
Epoch 00007: loss improved from 1.35593 to 1.31219, saving model to weights/GRU256_GRU64_GRU512_BATCH32_EMBEDDING100__007_1.3122_0.5767_1.8059_0.4500.hdf5
Test loss: 1.80594166189	Test acc: 0.449998313603
_________________________________________________________________
Layer (type)                 Output Shape              Param #   
=================================================================
masking_3 (Masking)          (None, 100, 1)            0         
_________________________________________________________________
embedding_3 (Embedding)      (None, 100, 1, 60)        3000      
_________________________________________________________________
reshape_3 (Reshape)          (None, 100, 60)           0         
_________________________________________________________________
gru_7 (GRU)                  (None, 100, 256)          243456    
_________________________________________________________________
gru_8 (GRU)                  (None, 100, 64)           61632     
_________________________________________________________________
gru_9 (GRU)                  (None, 512)               886272    
_________________________________________________________________
dense_3 (Dense)              (None, 50)                25650     
=================================================================
Total params: 1,220,010
Trainable params: 1,220,010
Non-trainable params: 0
_________________________________________________________________
None
Train on 88944 samples, validate on 29649 samples
Epoch 1/20
Epoch 00001: loss improved from inf to 2.35035, saving model to weights/GRU256_GRU64_GRU512_BATCH32_EMBEDDING60__001_2.3503_0.2803_2.4977_0.2514.hdf5
…
Epoch 00012: loss improved from 1.49648 to 1.40024, saving model to weights/GRU256_GRU64_GRU512_BATCH32_EMBEDDING60__012_1.4002_0.5470_1.7618_0.4566.hdf5
Epoch 13/20
Epoch 00013: loss improved from 1.40024 to 1.31568, saving model to weights/GRU256_GRU64_GRU512_BATCH32_EMBEDDING60__013_1.3157_0.5741_1.7767_0.4513.hdf5
Epoch 14/20
Epoch 00014: loss improved from 1.31568 to 1.25540, saving model to weights/GRU256_GRU64_GRU512_BATCH32_EMBEDDING60__014_1.2554_0.5947_1.8134_0.4500.hdf5
Test loss: 1.81344923644	Test acc: 0.450032041563

yer (type)                 Output Shape              Param #   
=================================================================
masking_1 (Masking)          (None, 100, 1)            0         
_________________________________________________________________
embedding_1 (Embedding)      (None, 100, 1, 20)        1000      
_________________________________________________________________
reshape_1 (Reshape)          (None, 100, 20)           0         
_________________________________________________________________
gru_1 (GRU)                  (None, 100, 256)          212736    
_________________________________________________________________
gru_2 (GRU)                  (None, 100, 64)           61632     
_________________________________________________________________
gru_3 (GRU)                  (None, 512)               886272    
_________________________________________________________________
dense_1 (Dense)              (None, 50)                25650     
=================================================================
Total params: 1,187,290
Trainable params: 1,187,290
Non-trainable params: 0
_________________________________________________________________
None
Train on 88944 samples, validate on 29649 samples
Epoch 1/20
2018-09-03 21:20:05.703570: I tensorflow/stream_executor/cuda/cuda_gpu_executor.cc:892] successful NUMA node read from SysFS had negative value (-1), but there must be at least one NUMA node, so returning NUMA node zero
…
Epoch 00007: loss improved from 1.49805 to 1.42604, saving model to weights/GRU256_GRU64_GRU512_BATCH32_EMBEDDING20__007_1.4260_0.5398_1.7757_0.4442.hdf5
Epoch 8/20
Epoch 00008: loss improved from 1.42604 to 1.37579, saving model to weights/GRU256_GRU64_GRU512_BATCH32_EMBEDDING20__008_1.3758_0.5558_1.8148_0.4446.hdf5
Epoch 9/20
Epoch 00009: loss improved from 1.37579 to 1.37305, saving model to weights/GRU256_GRU64_GRU512_BATCH32_EMBEDDING20__009_1.3730_0.5559_1.8041_0.4475.hdf5
Epoch 10/20
Epoch 00010: loss did not improve
Test loss: 1.87041328184	Test acc: 0.435529022911

Layer (type)                 Output Shape              Param #   
=================================================================
masking_5 (Masking)          (None, 100, 1)            0         
_________________________________________________________________
embedding_5 (Embedding)      (None, 100, 1, 80)        4000      
_________________________________________________________________
reshape_5 (Reshape)          (None, 100, 80)           0         
_________________________________________________________________
gru_13 (GRU)                 (None, 100, 256)          258816    
_________________________________________________________________
gru_14 (GRU)                 (None, 100, 64)           61632     
_________________________________________________________________
gru_15 (GRU)                 (None, 512)               886272    
_________________________________________________________________
dense_5 (Dense)              (None, 50)                25650     
=================================================================
Total params: 1,236,370
Trainable params: 1,236,370
Non-trainable params: 0
_________________________________________________________________
None
Train on 88944 samples, validate on 29649 samples
Epoch 1/20
Epoch 00001: loss improved from inf to 2.18780, saving model to weights/GRU256_GRU64_GRU512_BATCH32_EMBEDDING80__001_2.1878_0.3140_1.9463_0.3759.hdf5
…
