Using TensorFlow backend.
_________________________________________________________________
Layer (type)                 Output Shape              Param #   
=================================================================
masking_1 (Masking)          (None, 100, 1)            0         
_________________________________________________________________
embedding_1 (Embedding)      (None, 100, 1, 10)        500       
_________________________________________________________________
reshape_1 (Reshape)          (None, 100, 10)           0         
_________________________________________________________________
gru_1 (GRU)                  (None, 100, 256)          205056    
_________________________________________________________________
gru_2 (GRU)                  (None, 128)               147840    
_________________________________________________________________
dense_1 (Dense)              (None, 50)                6450      
=================================================================
Total params: 359,846
Trainable params: 359,846
Non-trainable params: 0
_________________________________________________________________
None
Train on 88945 samples, validate on 29648 samples
Epoch 1/10
Epoch 00000: loss improved from inf to 2.38018, saving model to weights004_GRU-256_GRU-128_10-embedding/000_2.3802_0.2636_2.1043_0.3366.hdf5
…
