…
TRAIN DATA: ['loss', 'acc']
[1.0032703341458165, 0.67876416620622326]
------------------------------
VALIDATION DATA: ['loss', 'acc']
[1.9128410463900207, 0.44109413469737163]
------------------------------
TEST DATA: ['loss', 'acc']
[1.8969619604720125, 0.44227461293960424]
25 epochs in 6341.52609038353 seconds
------------------------------
------------------------------



TEST: 4-layer GRU
_________________________________________________________________
Layer (type)                 Output Shape              Param #   
=================================================================
gru_1 (GRU)                  (None, 100, 128)          49920     
_________________________________________________________________
gru_2 (GRU)                  (None, 100, 128)          98688     
_________________________________________________________________
gru_3 (GRU)                  (None, 100, 128)          98688     
_________________________________________________________________
gru_4 (GRU)                  (None, 128)               98688     
_________________________________________________________________
dense_1 (Dense)              (None, 50)                6450      
=================================================================
Total params: 352,434
Trainable params: 352,434
Non-trainable params: 0
_________________________________________________________________
None

Epoch 00001: loss improved from inf to 2.47265, saving model to weights006_GRU-128-tanh_rmsprop_128-batch_25-epochs/4-layer_001_2.4727_0.2541_2.2293_0.3034.hdf5

Epoch 00002: loss improved from 2.47265 to 2.13966, saving model to weights006_GRU-128-tanh_rmsprop_128-batch_25-epochs/4-layer_002_2.1397_0.3286_2.0426_0.3521.hdf5
…
TRAIN DATA: ['loss', 'acc']
[0.8032570740348424, 0.7472454577947096]
------------------------------
VALIDATION DATA: ['loss', 'acc']
[2.0562009114134177, 0.4399136564993666]
------------------------------
TEST DATA: ['loss', 'acc']
[2.026610014358135, 0.4439272825681901]
25 epochs in 19526.18221974373 seconds
------------------------------
------------------------------



TEST: 5-layer GRU
_________________________________________________________________
Layer (type)                 Output Shape              Param #   
=================================================================
gru_5 (GRU)                  (None, 100, 128)          49920     
_________________________________________________________________
gru_6 (GRU)                  (None, 100, 128)          98688     
_________________________________________________________________
gru_7 (GRU)                  (None, 100, 128)          98688     
_________________________________________________________________
gru_8 (GRU)                  (None, 100, 128)          98688     
_________________________________________________________________
gru_9 (GRU)                  (None, 128)               98688     
_________________________________________________________________
dense_2 (Dense)              (None, 50)                6450      
=================================================================
Total params: 451,122
Trainable params: 451,122
Non-trainable params: 0
_________________________________________________________________
None

Epoch 00001: loss improved from inf to 2.47932, saving model to weights006_GRU-128-tanh_rmsprop_128-batch_25-epochs/5-layer_001_2.4793_0.2521_2.2321_0.2976.hdf5

Epoch 00002: loss improved from 2.47932 to 2.13016, saving model to weights006_GRU-128-tanh_rmsprop_128-batch_25-epochs/5-layer_002_2.1302_0.3308_2.0682_0.3465.hdf5
…
TRAIN DATA: ['loss', 'acc']
[0.63890464697452, 0.8009196797770806]
------------------------------
VALIDATION DATA: ['loss', 'acc']
[2.114234427058189, 0.45185335084171235]
------------------------------
TEST DATA: ['loss', 'acc']
[2.09314579879893, 0.4593072279289105]
25 epochs in 25027.1096637249 seconds
------------------------------
------------------------------



TEST: 6-layer GRU
_________________________________________________________________
Layer (type)                 Output Shape              Param #   
=================================================================
gru_10 (GRU)                 (None, 100, 128)          49920     
_________________________________________________________________
gru_11 (GRU)                 (None, 100, 128)          98688     
_________________________________________________________________
gru_12 (GRU)                 (None, 100, 128)          98688     
_________________________________________________________________
gru_13 (GRU)                 (None, 100, 128)          98688     
_________________________________________________________________
gru_14 (GRU)                 (None, 100, 128)          98688     
_________________________________________________________________
gru_15 (GRU)                 (None, 128)               98688     
_________________________________________________________________
dense_3 (Dense)              (None, 50)                6450      
=================================================================
Total params: 549,810
Trainable params: 549,810
Non-trainable params: 0
_________________________________________________________________
None

Epoch 00001: loss improved from inf to 2.52551, saving model to weights006_GRU-128-tanh_rmsprop_128-batch_25-epochs/6-layer_001_2.5255_0.2386_2.2760_0.2859.hdf5

Epoch 00002: loss improved from 2.52551 to 2.17462, saving model to weights006_GRU-128-tanh_rmsprop_128-batch_25-epochs/6-layer_002_2.1746_0.3147_2.0532_0.3481.hdf5
…
TRAIN DATA: ['loss', 'acc']
[0.6542453050377515, 0.7978390897643461]
------------------------------
VALIDATION DATA: ['loss', 'acc']
[2.124003094791976, 0.4498634018111243]
------------------------------
TEST DATA: ['loss', 'acc']
[2.075026305941145, 0.4546190427897121]
25 epochs in 30325.348247528076 seconds
------------------------------
------------------------------



TEST: 7-layer GRU
_________________________________________________________________
Layer (type)                 Output Shape              Param #   
=================================================================
gru_16 (GRU)                 (None, 100, 128)          49920     
_________________________________________________________________
gru_17 (GRU)                 (None, 100, 128)          98688     
_________________________________________________________________
gru_18 (GRU)                 (None, 100, 128)          98688     
_________________________________________________________________
gru_19 (GRU)                 (None, 100, 128)          98688     
_________________________________________________________________
gru_20 (GRU)                 (None, 100, 128)          98688     
_________________________________________________________________
gru_21 (GRU)                 (None, 100, 128)          98688     
_________________________________________________________________
gru_22 (GRU)                 (None, 128)               98688     
_________________________________________________________________
dense_4 (Dense)              (None, 50)                6450      
=================================================================
Total params: 648,498
Trainable params: 648,498
Non-trainable params: 0
_________________________________________________________________
None

Epoch 00001: loss improved from inf to 2.52881, saving model to weights006_GRU-128-tanh_rmsprop_128-batch_25-epochs/7-layer_001_2.5288_0.2408_2.3090_0.2817.hdf5

Epoch 00002: loss improved from 2.52881 to 2.17818, saving model to weights006_GRU-128-tanh_rmsprop_128-batch_25-epochs/7-layer_002_2.1782_0.3145_2.0991_0.3337.hdf5
…
TRAIN DATA: ['loss', 'acc']
[0.6162773353372852, 0.8096330275122136]
------------------------------
VALIDATION DATA: ['loss', 'acc']
[2.1336957589301973, 0.44925629870478]
------------------------------
TEST DATA: ['loss', 'acc']
[2.122079994997016, 0.44571486387656]
25 epochs in 34631.883031606674 seconds
------------------------------
------------------------------



TEST: 8-layer GRU
_________________________________________________________________
Layer (type)                 Output Shape              Param #   
=================================================================
gru_1 (GRU)                  (None, 100, 128)          49920     
_________________________________________________________________
gru_2 (GRU)                  (None, 100, 128)          98688     
_________________________________________________________________
gru_3 (GRU)                  (None, 100, 128)          98688     
_________________________________________________________________
gru_4 (GRU)                  (None, 100, 128)          98688     
_________________________________________________________________
gru_5 (GRU)                  (None, 100, 128)          98688     
_________________________________________________________________
gru_6 (GRU)                  (None, 100, 128)          98688     
_________________________________________________________________
gru_7 (GRU)                  (None, 100, 128)          98688     
_________________________________________________________________
gru_8 (GRU)                  (None, 128)               98688     
_________________________________________________________________
dense_1 (Dense)              (None, 50)                6450      
=================================================================
Total params: 747,186
Trainable params: 747,186
Non-trainable params: 0
_________________________________________________________________
None
Epoch 00001: loss improved from inf to 2.61693, saving model to weights006_GRU-128-tanh_rmsprop_128-batch_25-epochs/8-layer_001_2.6169_0.2257_2.3511_0.2738.hdf5
Epoch 00002: loss improved from 2.61693 to 2.24702, saving model to weights006_GRU-128-tanh_rmsprop_128-batch_25-epochs/8-layer_002_2.2470_0.2968_2.1667_0.3231.hdf5
…
TRAIN DATA: ['loss', 'acc']
[1.1488037145830441, 0.64690142110818405]
------------------------------
VALIDATION DATA: ['loss', 'acc']
[2.3892752865948257, 0.40895139803158348]
------------------------------
TEST DATA: ['loss', 'acc']
[2.3525067239053903, 0.41724847379918967]
25 epochs in 17027.1388835907 seconds
------------------------------
------------------------------



TEST: 9-layer GRU
_________________________________________________________________
Layer (type)                 Output Shape              Param #   
=================================================================
gru_1 (GRU)                  (None, 100, 128)          49920     
_________________________________________________________________
gru_2 (GRU)                  (None, 100, 128)          98688     
_________________________________________________________________
gru_3 (GRU)                  (None, 100, 128)          98688     
_________________________________________________________________
gru_4 (GRU)                  (None, 100, 128)          98688     
_________________________________________________________________
gru_5 (GRU)                  (None, 100, 128)          98688     
_________________________________________________________________
gru_6 (GRU)                  (None, 100, 128)          98688     
_________________________________________________________________
gru_7 (GRU)                  (None, 100, 128)          98688     
_________________________________________________________________
gru_8 (GRU)                  (None, 100, 128)          98688     
_________________________________________________________________
gru_9 (GRU)                  (None, 128)               98688     
_________________________________________________________________
dense_1 (Dense)              (None, 50)                6450      
=================================================================
Total params: 845,874
Trainable params: 845,874
Non-trainable params: 0
_________________________________________________________________
None
Epoch 00001: loss improved from inf to 2.72802, saving model to weights006_GRU-128-tanh_rmsprop_128-batch_25-epochs/9-layer_001_2.7280_0.2062_2.4503_0.2544.hdf5
Epoch 00002: loss improved from 2.72802 to 2.32655, saving model to weights006_GRU-128-tanh_rmsprop_128-batch_25-epochs/9-layer_002_2.3265_0.2816_2.2024_0.3035.hdf5
…
TRAIN DATA: ['loss', 'acc']
[0.60685875444108583, 0.80997031838114597]
------------------------------
VALIDATION DATA: ['loss', 'acc']
[2.1708436275060037, 0.4506728725994798]
------------------------------
TEST DATA: ['loss', 'acc']
[2.1540461710691172, 0.45340483651771857]
25 epochs in 19224.042021751404 seconds
------------------------------
------------------------------



TEST: 10-layer GRU
_________________________________________________________________
Layer (type)                 Output Shape              Param #   
=================================================================
gru_10 (GRU)                 (None, 100, 128)          49920     
_________________________________________________________________
gru_11 (GRU)                 (None, 100, 128)          98688     
_________________________________________________________________
gru_12 (GRU)                 (None, 100, 128)          98688     
_________________________________________________________________
gru_13 (GRU)                 (None, 100, 128)          98688     
_________________________________________________________________
gru_14 (GRU)                 (None, 100, 128)          98688     
_________________________________________________________________
gru_15 (GRU)                 (None, 100, 128)          98688     
_________________________________________________________________
gru_16 (GRU)                 (None, 100, 128)          98688     
_________________________________________________________________
gru_17 (GRU)                 (None, 100, 128)          98688     
_________________________________________________________________
gru_18 (GRU)                 (None, 100, 128)          98688     
_________________________________________________________________
gru_19 (GRU)                 (None, 128)               98688     
_________________________________________________________________
dense_2 (Dense)              (None, 50)                6450      
=================================================================
Total params: 944,562
Trainable params: 944,562
Non-trainable params: 0
_________________________________________________________________
None
Epoch 00001: loss improved from inf to 2.83927, saving model to weights006_GRU-128-tanh_rmsprop_128-batch_25-epochs/10-layer_001_2.8393_0.1922_2.6208_0.2302.hdf5
Epoch 00002: loss improved from 2.83927 to 2.47459, saving model to weights006_GRU-128-tanh_rmsprop_128-batch_25-epochs/10-layer_002_2.4746_0.2592_2.3944_0.2712.hdf5
…
